node {
  name: "x"
  op: "Placeholder"
  attr {
    key: "dtype"
    value {
      type: DT_FLOAT
    }
  }
  attr {
    key: "shape"
    value {
      shape {
        dim {
          size: -1
        }
        dim {
          size: 29
        }
        dim {
          size: 13
        }
      }
    }
  }
}
node {
  name: "sequential/net/while/loop_counter"
  op: "Const"
  attr {
    key: "_has_manual_control_dependencies"
    value {
      b: true
    }
  }
  attr {
    key: "dtype"
    value {
      type: DT_INT32
    }
  }
  attr {
    key: "value"
    value {
      tensor {
        dtype: DT_INT32
        tensor_shape {
        }
      }
    }
  }
}
node {
  name: "sequential/net/while/maximum_iterations"
  op: "Const"
  attr {
    key: "_has_manual_control_dependencies"
    value {
      b: true
    }
  }
  attr {
    key: "dtype"
    value {
      type: DT_INT32
    }
  }
  attr {
    key: "value"
    value {
      tensor {
        dtype: DT_INT32
        tensor_shape {
        }
        int_val: -1
      }
    }
  }
}
node {
  name: "sequential/net/gru_cell/ReadVariableOp/resource"
  op: "Const"
  attr {
    key: "dtype"
    value {
      type: DT_FLOAT
    }
  }
  attr {
    key: "value"
    value {
      tensor {
        dtype: DT_FLOAT
        tensor_shape {
          dim {
            size: 2
          }
          dim {
            size: 60
          }
        }
        tensor_content: "…"
      }
    }
  }
}
node {
  name: "sequential/net/time"
  op: "Const"
  attr {
    key: "_has_manual_control_dependencies"
    value {
      b: true
    }
  }
  attr {
    key: "dtype"
    value {
      type: DT_INT32
    }
  }
  attr {
    key: "value"
    value {
      tensor {
        dtype: DT_INT32
        tensor_shape {
        }
      }
    }
  }
}
node {
  name: "sequential/net/TensorArrayV2_1/element_shape"
  op: "Const"
  attr {
    key: "dtype"
    value {
      type: DT_INT32
    }
  }
  attr {
    key: "value"
    value {
      tensor {
        dtype: DT_INT32
        tensor_shape {
          dim {
            size: 2
          }
        }
        tensor_content: "\377\377\377\377\024\000\000\000"
      }
    }
  }
}
node {
  name: "sequential/net/TensorArrayV2_1/num_elements"
  op: "Const"
  attr {
    key: "dtype"
    value {
      type: DT_INT32
    }
  }
  attr {
    key: "value"
    value {
      tensor {
        dtype: DT_INT32
        tensor_shape {
        }
        int_val: 1
      }
    }
  }
}
node {
  name: "sequential/net/transpose/perm"
  op: "Const"
  attr {
    key: "dtype"
    value {
      type: DT_INT32
    }
  }
  attr {
    key: "value"
    value {
      tensor {
        dtype: DT_INT32
        tensor_shape {
          dim {
            size: 3
          }
        }
        tensor_content: "\001\000\000\000\000\000\000\000\002\000\000\000"
      }
    }
  }
}
node {
  name: "sequential/net/TensorArrayUnstack/TensorListFromTensor/element_shape"
  op: "Const"
  attr {
    key: "dtype"
    value {
      type: DT_INT32
    }
  }
  attr {
    key: "value"
    value {
      tensor {
        dtype: DT_INT32
        tensor_shape {
          dim {
            size: 2
          }
        }
        tensor_content: "\377\377\377\377\r\000\000\000"
      }
    }
  }
}
node {
  name: "sequential/net/gru_cell/MatMul_1/ReadVariableOp/resource"
  op: "Const"
  attr {
    key: "dtype"
    value {
      type: DT_FLOAT
    }
  }
  attr {
    key: "value"
    value {
      tensor {
        dtype: DT_FLOAT
        tensor_shape {
          dim {
            size: 20
          }
          dim {
            size: 60
          }
        }
        tensor_content: "…"
      }
    }
  }
}
node {
  name: "sequential/net/strided_slice_1/stack"
  op: "Const"
  attr {
    key: "dtype"
    value {
      type: DT_INT32
    }
  }
  attr {
    key: "value"
    value {
      tensor {
        dtype: DT_INT32
        tensor_shape {
          dim {
            size: 1
          }
        }
      }
    }
  }
}
node {
  name: "sequential/net/strided_slice_1/stack_1"
  op: "Const"
  attr {
    key: "dtype"
    value {
      type: DT_INT32
    }
  }
  attr {
    key: "value"
    value {
      tensor {
        dtype: DT_INT32
        tensor_shape {
          dim {
            size: 1
          }
        }
        int_val: 1
      }
    }
  }
}
node {
  name: "sequential/net/strided_slice_1/stack_2"
  op: "Const"
  attr {
    key: "dtype"
    value {
      type: DT_INT32
    }
  }
  attr {
    key: "value"
    value {
      tensor {
        dtype: DT_INT32
        tensor_shape {
          dim {
            size: 1
          }
        }
        int_val: 1
      }
    }
  }
}
node {
  name: "sequential/net/strided_slice/stack"
  op: "Const"
  attr {
    key: "dtype"
    value {
      type: DT_INT32
    }
  }
  attr {
    key: "value"
    value {
      tensor {
        dtype: DT_INT32
        tensor_shape {
          dim {
            size: 1
          }
        }
      }
    }
  }
}
node {
  name: "sequential/net/strided_slice/stack_1"
  op: "Const"
  attr {
    key: "dtype"
    value {
      type: DT_INT32
    }
  }
  attr {
    key: "value"
    value {
      tensor {
        dtype: DT_INT32
        tensor_shape {
          dim {
            size: 1
          }
        }
        int_val: 1
      }
    }
  }
}
node {
  name: "sequential/net/strided_slice/stack_2"
  op: "Const"
  attr {
    key: "dtype"
    value {
      type: DT_INT32
    }
  }
  attr {
    key: "value"
    value {
      tensor {
        dtype: DT_INT32
        tensor_shape {
          dim {
            size: 1
          }
        }
        int_val: 1
      }
    }
  }
}
node {
  name: "sequential/net/zeros/packed/1"
  op: "Const"
  attr {
    key: "dtype"
    value {
      type: DT_INT32
    }
  }
  attr {
    key: "value"
    value {
      tensor {
        dtype: DT_INT32
        tensor_shape {
        }
        int_val: 20
      }
    }
  }
}
node {
  name: "sequential/net/zeros/Const"
  op: "Const"
  attr {
    key: "dtype"
    value {
      type: DT_FLOAT
    }
  }
  attr {
    key: "value"
    value {
      tensor {
        dtype: DT_FLOAT
        tensor_shape {
        }
      }
    }
  }
}
node {
  name: "sequential/net/gru_cell/MatMul/ReadVariableOp/resource"
  op: "Const"
  attr {
    key: "dtype"
    value {
      type: DT_FLOAT
    }
  }
  attr {
    key: "value"
    value {
      tensor {
        dtype: DT_FLOAT
        tensor_shape {
          dim {
            size: 13
          }
          dim {
            size: 60
          }
        }
        tensor_content: "…"
      }
    }
  }
}
node {
  name: "sequential/net/TensorArrayV2Stack/TensorListStack/element_shape"
  op: "Const"
  attr {
    key: "dtype"
    value {
      type: DT_INT32
    }
  }
  attr {
    key: "value"
    value {
      tensor {
        dtype: DT_INT32
        tensor_shape {
          dim {
            size: 2
          }
        }
        tensor_content: "\377\377\377\377\024\000\000\000"
      }
    }
  }
}
node {
  name: "sequential/net/strided_slice_3/stack"
  op: "Const"
  attr {
    key: "dtype"
    value {
      type: DT_INT32
    }
  }
  attr {
    key: "value"
    value {
      tensor {
        dtype: DT_INT32
        tensor_shape {
          dim {
            size: 1
          }
        }
        int_val: -1
      }
    }
  }
}
node {
  name: "sequential/net/strided_slice_3/stack_1"
  op: "Const"
  attr {
    key: "dtype"
    value {
      type: DT_INT32
    }
  }
  attr {
    key: "value"
    value {
      tensor {
        dtype: DT_INT32
        tensor_shape {
          dim {
            size: 1
          }
        }
      }
    }
  }
}
node {
  name: "sequential/net/strided_slice_3/stack_2"
  op: "Const"
  attr {
    key: "dtype"
    value {
      type: DT_INT32
    }
  }
  attr {
    key: "value"
    value {
      tensor {
        dtype: DT_INT32
        tensor_shape {
          dim {
            size: 1
          }
        }
        int_val: 1
      }
    }
  }
}
node {
  name: "sequential/dense/MatMul/ReadVariableOp/resource"
  op: "Const"
  attr {
    key: "dtype"
    value {
      type: DT_FLOAT
    }
  }
  attr {
    key: "value"
    value {
      tensor {
        dtype: DT_FLOAT
        tensor_shape {
          dim {
            size: 20
          }
          dim {
            size: 1
          }
        }
        tensor_content: "…"
      }
    }
  }
}
node {
  name: "sequential/dense/BiasAdd/ReadVariableOp/resource"
  op: "Const"
  attr {
    key: "dtype"
    value {
      type: DT_FLOAT
    }
  }
  attr {
    key: "value"
    value {
      tensor {
        dtype: DT_FLOAT
        tensor_shape {
          dim {
            size: 1
          }
        }
        float_val: -0.02297714538872242
      }
    }
  }
}
node {
  name: "sequential/net/while/LoopControlInputs/_12"
  op: "NoOp"
  input: "^sequential/net/TensorArrayUnstack/TensorListFromTensor"
  input: "^sequential/net/TensorArrayV2_1"
  input: "^sequential/net/strided_slice_1"
  input: "^sequential/net/time"
  input: "^sequential/net/while/loop_counter"
  input: "^sequential/net/while/maximum_iterations"
  input: "^sequential/net/zeros"
  attr {
    key: "_has_manual_control_dependencies"
    value {
      b: true
    }
  }
}
node {
  name: "sequential/net/while/enter/_2"
  op: "Enter"
  input: "sequential/net/while/loop_counter"
  input: "^sequential/net/while/LoopControlInputs/_12"
  attr {
    key: "T"
    value {
      type: DT_INT32
    }
  }
  attr {
    key: "frame_name"
    value {
      s: "sequential/net/while"
    }
  }
  attr {
    key: "is_constant"
    value {
      b: false
    }
  }
  attr {
    key: "parallel_iterations"
    value {
      i: 32
    }
  }
}
node {
  name: "unused_control_flow_input"
  op: "Placeholder"
  attr {
    key: "dtype"
    value {
      type: DT_INT32
    }
  }
  attr {
    key: "shape"
    value {
      shape {
        unknown_rank: true
      }
    }
  }
}
node {
  name: "unused_control_flow_input_1"
  op: "Placeholder"
  attr {
    key: "dtype"
    value {
      type: DT_BOOL
    }
  }
  attr {
    key: "shape"
    value {
      shape {
      }
    }
  }
}
node {
  name: "sequential/net/while/sequential/net/time_switch/_23"
  op: "Switch"
  input: "sequential/net/while/merge/_15"
  input: "sequential/net/while/LoopCond/_20"
  attr {
    key: "T"
    value {
      type: DT_INT32
    }
  }
  attr {
    key: "_has_manual_control_dependencies"
    value {
      b: true
    }
  }
}
node {
  name: "sequential/net/while/enter/_9"
  op: "Enter"
  input: "sequential/net/gru_cell/ReadVariableOp/resource"
  input: "^sequential/net/while/LoopControlInputs/_12"
  attr {
    key: "T"
    value {
      type: DT_FLOAT
    }
  }
  attr {
    key: "_has_manual_control_dependencies"
    value {
      b: true
    }
  }
  attr {
    key: "frame_name"
    value {
      s: "sequential/net/while"
    }
  }
  attr {
    key: "is_constant"
    value {
      b: true
    }
  }
  attr {
    key: "parallel_iterations"
    value {
      i: 32
    }
  }
}
node {
  name: "unused_control_flow_input_2"
  op: "Placeholder"
  attr {
    key: "dtype"
    value {
      type: DT_VARIANT
    }
  }
  attr {
    key: "shape"
    value {
      shape {
        unknown_rank: true
      }
    }
  }
}
node {
  name: "unused_control_flow_input_3"
  op: "Placeholder"
  attr {
    key: "dtype"
    value {
      type: DT_BOOL
    }
  }
  attr {
    key: "shape"
    value {
      shape {
      }
    }
  }
}
node {
  name: "sequential/net/while/sequential/net/TensorArrayV2_1_switch/_24"
  op: "Switch"
  input: "sequential/net/while/merge/_16"
  input: "sequential/net/while/LoopCond/_20"
  attr {
    key: "T"
    value {
      type: DT_VARIANT
    }
  }
  attr {
    key: "_has_manual_control_dependencies"
    value {
      b: true
    }
  }
}
node {
  name: "unused_control_flow_input_4"
  op: "Placeholder"
  attr {
    key: "dtype"
    value {
      type: DT_INT32
    }
  }
  attr {
    key: "shape"
    value {
      shape {
        unknown_rank: true
      }
    }
  }
}
node {
  name: "unused_control_flow_input_5"
  op: "Placeholder"
  attr {
    key: "dtype"
    value {
      type: DT_BOOL
    }
  }
  attr {
    key: "shape"
    value {
      shape {
      }
    }
  }
}
node {
  name: "sequential/net/while/sequential/net/while/loop_counter_switch/_21"
  op: "Switch"
  input: "sequential/net/while/merge/_13"
  input: "sequential/net/while/LoopCond/_20"
  attr {
    key: "T"
    value {
      type: DT_INT32
    }
  }
  attr {
    key: "_has_manual_control_dependencies"
    value {
      b: true
    }
  }
}
node {
  name: "sequential/net/while/loop_body_control/_28"
  op: "Identity"
  input: "sequential/net/while/sequential/net/while/loop_counter_switch/_21:1"
  attr {
    key: "T"
    value {
      type: DT_INT32
    }
  }
  attr {
    key: "_has_manual_control_dependencies"
    value {
      b: true
    }
  }
}
node {
  name: "Func/sequential/net/while/body/_1/input_control_node/_56"
  op: "NoOp"
  input: "^sequential/net/while/enter/_10"
  input: "^sequential/net/while/enter/_11"
  input: "^sequential/net/while/enter/_9"
  input: "^sequential/net/while/loop_body_control/_28"
  input: "^sequential/net/while/sequential/net/TensorArrayUnstack/TensorListFromTensor_switch/_27"
  input: "^sequential/net/while/sequential/net/TensorArrayV2_1_switch/_24"
  input: "^sequential/net/while/sequential/net/strided_slice_1_switch/_26"
  input: "^sequential/net/while/sequential/net/time_switch/_23"
  input: "^sequential/net/while/sequential/net/while/loop_counter_switch/_21"
  input: "^sequential/net/while/sequential/net/while/maximum_iterations_switch/_22"
  input: "^sequential/net/while/sequential/net/zeros_switch/_25"
  attr {
    key: "_has_manual_control_dependencies"
    value {
      b: true
    }
  }
}
node {
  name: "Func/sequential/net/while/body/_1/input/_57"
  op: "Identity"
  input: "sequential/net/while/sequential/net/while/loop_counter_switch/_21:1"
  input: "^Func/sequential/net/while/body/_1/input_control_node/_56"
  attr {
    key: "T"
    value {
      type: DT_INT32
    }
  }
}
node {
  name: "sequential/net/while/body/_1/sequential/net/while/add_1/y"
  op: "Const"
  input: "^Func/sequential/net/while/body/_1/input_control_node/_56"
  attr {
    key: "dtype"
    value {
      type: DT_INT32
    }
  }
  attr {
    key: "value"
    value {
      tensor {
        dtype: DT_INT32
        tensor_shape {
        }
        int_val: 1
      }
    }
  }
}
node {
  name: "sequential/net/while/body/_1/sequential/net/while/add_1"
  op: "AddV2"
  input: "Func/sequential/net/while/body/_1/input/_57"
  input: "sequential/net/while/body/_1/sequential/net/while/add_1/y"
  attr {
    key: "T"
    value {
      type: DT_INT32
    }
  }
}
node {
  name: "sequential/net/while/body/_1/sequential/net/while/Identity"
  op: "Identity"
  input: "sequential/net/while/body/_1/sequential/net/while/add_1"
  input: "^sequential/net/while/body/_1/sequential/net/while/NoOp"
  attr {
    key: "T"
    value {
      type: DT_INT32
    }
  }
}
node {
  name: "Func/sequential/net/while/body/_1/output/_67"
  op: "Identity"
  input: "sequential/net/while/body/_1/sequential/net/while/Identity"
  attr {
    key: "T"
    value {
      type: DT_INT32
    }
  }
}
node {
  name: "unused_control_flow_input_6"
  op: "Placeholder"
  attr {
    key: "dtype"
    value {
      type: DT_FLOAT
    }
  }
  attr {
    key: "shape"
    value {
      shape {
        dim {
          size: 13
        }
        dim {
          size: 60
        }
      }
    }
  }
}
node {
  name: "Func/sequential/net/while/body/_1/input/_65"
  op: "Identity"
  input: "sequential/net/while/enter/_10"
  input: "^Func/sequential/net/while/body/_1/input_control_node/_56"
  attr {
    key: "T"
    value {
      type: DT_FLOAT
    }
  }
}
node {
  name: "sequential/net/while/body/_1/sequential/net/while/gru_cell/MatMul/ReadVariableOp"
  op: "Identity"
  input: "Func/sequential/net/while/body/_1/input/_65"
  attr {
    key: "T"
    value {
      type: DT_FLOAT
    }
  }
  attr {
    key: "_has_manual_control_dependencies"
    value {
      b: true
    }
  }
}
node {
  name: "unused_control_flow_input_7"
  op: "Placeholder"
  attr {
    key: "dtype"
    value {
      type: DT_FLOAT
    }
  }
  attr {
    key: "shape"
    value {
      shape {
        dim {
          size: 20
        }
        dim {
          size: 60
        }
      }
    }
  }
}
node {
  name: "Func/sequential/net/while/body/_1/input/_66"
  op: "Identity"
  input: "sequential/net/while/enter/_11"
  input: "^Func/sequential/net/while/body/_1/input_control_node/_56"
  attr {
    key: "T"
    value {
      type: DT_FLOAT
    }
  }
}
node {
  name: "sequential/net/while/body/_1/sequential/net/while/gru_cell/MatMul_1/ReadVariableOp"
  op: "Identity"
  input: "Func/sequential/net/while/body/_1/input/_66"
  attr {
    key: "T"
    value {
      type: DT_FLOAT
    }
  }
  attr {
    key: "_has_manual_control_dependencies"
    value {
      b: true
    }
  }
}
node {
  name: "Func/sequential/net/while/body/_1/input/_64"
  op: "Identity"
  input: "sequential/net/while/enter/_9"
  input: "^Func/sequential/net/while/body/_1/input_control_node/_56"
  attr {
    key: "T"
    value {
      type: DT_FLOAT
    }
  }
}
node {
  name: "sequential/net/while/body/_1/sequential/net/while/gru_cell/ReadVariableOp"
  op: "Identity"
  input: "Func/sequential/net/while/body/_1/input/_64"
  attr {
    key: "T"
    value {
      type: DT_FLOAT
    }
  }
  attr {
    key: "_has_manual_control_dependencies"
    value {
      b: true
    }
  }
}
node {
  name: "Func/sequential/net/while/body/_1/output_control_node/_77"
  op: "NoOp"
  input: "^sequential/net/while/body/_1/sequential/net/while/gru_cell/MatMul/ReadVariableOp"
  input: "^sequential/net/while/body/_1/sequential/net/while/gru_cell/MatMul_1/ReadVariableOp"
  input: "^sequential/net/while/body/_1/sequential/net/while/gru_cell/ReadVariableOp"
  attr {
    key: "_has_manual_control_dependencies"
    value {
      b: true
    }
  }
}
node {
  name: "sequential/net/while/next_iteration/_37"
  op: "NextIteration"
  input: "Func/sequential/net/while/body/_1/output/_67"
  input: "^Func/sequential/net/while/body/_1/output_control_node/_77"
  attr {
    key: "T"
    value {
      type: DT_INT32
    }
  }
}
node {
  name: "sequential/net/while/merge/_13"
  op: "Merge"
  input: "sequential/net/while/enter/_2"
  input: "sequential/net/while/next_iteration/_37"
  attr {
    key: "N"
    value {
      i: 2
    }
  }
  attr {
    key: "T"
    value {
      type: DT_INT32
    }
  }
  attr {
    key: "_has_manual_control_dependencies"
    value {
      b: true
    }
  }
}
node {
  name: "sequential/net/while/body/_1/sequential/net/while/NoOp"
  op: "NoOp"
  input: "^sequential/net/while/body/_1/sequential/net/while/gru_cell/MatMul/ReadVariableOp"
  input: "^sequential/net/while/body/_1/sequential/net/while/gru_cell/MatMul_1/ReadVariableOp"
  input: "^sequential/net/while/body/_1/sequential/net/while/gru_cell/ReadVariableOp"
  attr {
    key: "_has_manual_control_dependencies"
    value {
      b: true
    }
  }
}
node {
  name: "sequential/net/while/enter/_4"
  op: "Enter"
  input: "sequential/net/time"
  input: "^sequential/net/while/LoopControlInputs/_12"
  attr {
    key: "T"
    value {
      type: DT_INT32
    }
  }
  attr {
    key: "frame_name"
    value {
      s: "sequential/net/while"
    }
  }
  attr {
    key: "is_constant"
    value {
      b: false
    }
  }
  attr {
    key: "parallel_iterations"
    value {
      i: 32
    }
  }
}
node {
  name: "sequential/net/while/body/_1/sequential/net/while/add/y"
  op: "Const"
  input: "^Func/sequential/net/while/body/_1/input_control_node/_56"
  attr {
    key: "dtype"
    value {
      type: DT_INT32
    }
  }
  attr {
    key: "value"
    value {
      tensor {
        dtype: DT_INT32
        tensor_shape {
        }
        int_val: 1
      }
    }
  }
}
node {
  name: "unused_control_flow_input_8"
  op: "Placeholder"
  attr {
    key: "dtype"
    value {
      type: DT_INT32
    }
  }
  attr {
    key: "shape"
    value {
      shape {
        unknown_rank: true
      }
    }
  }
}
node {
  name: "sequential/net/while/body/_1/sequential/net/while/add"
  op: "AddV2"
  input: "Func/sequential/net/while/body/_1/input/_59"
  input: "sequential/net/while/body/_1/sequential/net/while/add/y"
  attr {
    key: "T"
    value {
      type: DT_INT32
    }
  }
}
node {
  name: "sequential/net/while/body/_1/sequential/net/while/Identity_2"
  op: "Identity"
  input: "sequential/net/while/body/_1/sequential/net/while/add"
  input: "^sequential/net/while/body/_1/sequential/net/while/NoOp"
  attr {
    key: "T"
    value {
      type: DT_INT32
    }
  }
}
node {
  name: "Func/sequential/net/while/body/_1/output/_69"
  op: "Identity"
  input: "sequential/net/while/body/_1/sequential/net/while/Identity_2"
  attr {
    key: "T"
    value {
      type: DT_INT32
    }
  }
}
node {
  name: "sequential/net/while/next_iteration/_39"
  op: "NextIteration"
  input: "Func/sequential/net/while/body/_1/output/_69"
  input: "^Func/sequential/net/while/body/_1/output_control_node/_77"
  attr {
    key: "T"
    value {
      type: DT_INT32
    }
  }
}
node {
  name: "sequential/net/while/merge/_15"
  op: "Merge"
  input: "sequential/net/while/enter/_4"
  input: "sequential/net/while/next_iteration/_39"
  attr {
    key: "N"
    value {
      i: 2
    }
  }
  attr {
    key: "T"
    value {
      type: DT_INT32
    }
  }
  attr {
    key: "_has_manual_control_dependencies"
    value {
      b: true
    }
  }
}
node {
  name: "sequential/net/while/enter/_10"
  op: "Enter"
  input: "sequential/net/gru_cell/MatMul/ReadVariableOp/resource"
  input: "^sequential/net/while/LoopControlInputs/_12"
  attr {
    key: "T"
    value {
      type: DT_FLOAT
    }
  }
  attr {
    key: "_has_manual_control_dependencies"
    value {
      b: true
    }
  }
  attr {
    key: "frame_name"
    value {
      s: "sequential/net/while"
    }
  }
  attr {
    key: "is_constant"
    value {
      b: true
    }
  }
  attr {
    key: "parallel_iterations"
    value {
      i: 32
    }
  }
}
node {
  name: "sequential/net/TensorArrayV2_1"
  op: "TensorListReserve"
  input: "sequential/net/TensorArrayV2_1/element_shape"
  input: "sequential/net/TensorArrayV2_1/num_elements"
  attr {
    key: "element_dtype"
    value {
      type: DT_FLOAT
    }
  }
  attr {
    key: "shape_type"
    value {
      type: DT_INT32
    }
  }
  experimental_type {
    type_id: TFT_PRODUCT
    args {
      type_id: TFT_ARRAY
      args {
        type_id: TFT_TENSOR
        args {
          type_id: TFT_FLOAT
        }
      }
    }
  }
}
node {
  name: "sequential/net/while/enter/_11"
  op: "Enter"
  input: "sequential/net/gru_cell/MatMul_1/ReadVariableOp/resource"
  input: "^sequential/net/while/LoopControlInputs/_12"
  attr {
    key: "T"
    value {
      type: DT_FLOAT
    }
  }
  attr {
    key: "_has_manual_control_dependencies"
    value {
      b: true
    }
  }
  attr {
    key: "frame_name"
    value {
      s: "sequential/net/while"
    }
  }
  attr {
    key: "is_constant"
    value {
      b: true
    }
  }
  attr {
    key: "parallel_iterations"
    value {
      i: 32
    }
  }
}
node {
  name: "sequential/net/while/enter/_5"
  op: "Enter"
  input: "sequential/net/TensorArrayV2_1"
  input: "^sequential/net/while/LoopControlInputs/_12"
  attr {
    key: "T"
    value {
      type: DT_VARIANT
    }
  }
  attr {
    key: "frame_name"
    value {
      s: "sequential/net/while"
    }
  }
  attr {
    key: "is_constant"
    value {
      b: false
    }
  }
  attr {
    key: "parallel_iterations"
    value {
      i: 32
    }
  }
}
node {
  name: "Func/sequential/net/while/body/_1/input/_60"
  op: "Identity"
  input: "sequential/net/while/sequential/net/TensorArrayV2_1_switch/_24:1"
  input: "^Func/sequential/net/while/body/_1/input_control_node/_56"
  attr {
    key: "T"
    value {
      type: DT_VARIANT
    }
  }
}
node {
  name: "sequential/net/while/body/_1/sequential/net/while/TensorArrayV2Write/TensorListSetItem/index"
  op: "Const"
  input: "^Func/sequential/net/while/body/_1/input_control_node/_56"
  attr {
    key: "dtype"
    value {
      type: DT_INT32
    }
  }
  attr {
    key: "value"
    value {
      tensor {
        dtype: DT_INT32
        tensor_shape {
        }
      }
    }
  }
}
node {
  name: "unused_control_flow_input_9"
  op: "Placeholder"
  attr {
    key: "dtype"
    value {
      type: DT_FLOAT
    }
  }
  attr {
    key: "shape"
    value {
      shape {
        unknown_rank: true
      }
    }
  }
}
node {
  name: "sequential/net/while/body/_1/sequential/net/while/TensorArrayV2Write/TensorListSetItem"
  op: "TensorListSetItem"
  input: "Func/sequential/net/while/body/_1/input/_60"
  input: "sequential/net/while/body/_1/sequential/net/while/TensorArrayV2Write/TensorListSetItem/index"
  input: "sequential/net/while/body/_1/sequential/net/while/gru_cell/add_3"
  attr {
    key: "element_dtype"
    value {
      type: DT_FLOAT
    }
  }
  attr {
    key: "resize_if_index_out_of_bounds"
    value {
      b: false
    }
  }
  experimental_type {
    type_id: TFT_PRODUCT
    args {
      type_id: TFT_ARRAY
      args {
        type_id: TFT_TENSOR
        args {
          type_id: TFT_FLOAT
        }
      }
    }
  }
}
node {
  name: "sequential/net/while/body/_1/sequential/net/while/Identity_3"
  op: "Identity"
  input: "sequential/net/while/body/_1/sequential/net/while/TensorArrayV2Write/TensorListSetItem"
  input: "^sequential/net/while/body/_1/sequential/net/while/NoOp"
  attr {
    key: "T"
    value {
      type: DT_VARIANT
    }
  }
}
node {
  name: "Func/sequential/net/while/body/_1/output/_70"
  op: "Identity"
  input: "sequential/net/while/body/_1/sequential/net/while/Identity_3"
  attr {
    key: "T"
    value {
      type: DT_VARIANT
    }
  }
}
node {
  name: "sequential/net/while/next_iteration/_40"
  op: "NextIteration"
  input: "Func/sequential/net/while/body/_1/output/_70"
  input: "^Func/sequential/net/while/body/_1/output_control_node/_77"
  attr {
    key: "T"
    value {
      type: DT_VARIANT
    }
  }
}
node {
  name: "sequential/net/while/merge/_16"
  op: "Merge"
  input: "sequential/net/while/enter/_5"
  input: "sequential/net/while/next_iteration/_40"
  attr {
    key: "N"
    value {
      i: 2
    }
  }
  attr {
    key: "T"
    value {
      type: DT_VARIANT
    }
  }
  attr {
    key: "_has_manual_control_dependencies"
    value {
      b: true
    }
  }
}
node {
  name: "sequential/net/while/enter/_3"
  op: "Enter"
  input: "sequential/net/while/maximum_iterations"
  input: "^sequential/net/while/LoopControlInputs/_12"
  attr {
    key: "T"
    value {
      type: DT_INT32
    }
  }
  attr {
    key: "frame_name"
    value {
      s: "sequential/net/while"
    }
  }
  attr {
    key: "is_constant"
    value {
      b: false
    }
  }
  attr {
    key: "parallel_iterations"
    value {
      i: 32
    }
  }
}
node {
  name: "unused_control_flow_input_10"
  op: "Placeholder"
  attr {
    key: "dtype"
    value {
      type: DT_INT32
    }
  }
  attr {
    key: "shape"
    value {
      shape {
        unknown_rank: true
      }
    }
  }
}
node {
  name: "Func/sequential/net/while/body/_1/input/_58"
  op: "Identity"
  input: "sequential/net/while/sequential/net/while/maximum_iterations_switch/_22:1"
  input: "^Func/sequential/net/while/body/_1/input_control_node/_56"
  attr {
    key: "T"
    value {
      type: DT_INT32
    }
  }
}
node {
  name: "sequential/net/while/body/_1/sequential/net/while/Identity_1"
  op: "Identity"
  input: "Func/sequential/net/while/body/_1/input/_58"
  input: "^sequential/net/while/body/_1/sequential/net/while/NoOp"
  attr {
    key: "T"
    value {
      type: DT_INT32
    }
  }
}
node {
  name: "Func/sequential/net/while/body/_1/output/_68"
  op: "Identity"
  input: "sequential/net/while/body/_1/sequential/net/while/Identity_1"
  attr {
    key: "T"
    value {
      type: DT_INT32
    }
  }
}
node {
  name: "sequential/net/while/next_iteration/_38"
  op: "NextIteration"
  input: "Func/sequential/net/while/body/_1/output/_68"
  input: "^Func/sequential/net/while/body/_1/output_control_node/_77"
  attr {
    key: "T"
    value {
      type: DT_INT32
    }
  }
}
node {
  name: "sequential/net/while/merge/_14"
  op: "Merge"
  input: "sequential/net/while/enter/_3"
  input: "sequential/net/while/next_iteration/_38"
  attr {
    key: "N"
    value {
      i: 2
    }
  }
  attr {
    key: "T"
    value {
      type: DT_INT32
    }
  }
  attr {
    key: "_has_manual_control_dependencies"
    value {
      b: true
    }
  }
}
node {
  name: "Func/sequential/net/while/cond/_0/input_control_node/_44"
  op: "NoOp"
  input: "^sequential/net/while/enter/_10"
  input: "^sequential/net/while/enter/_11"
  input: "^sequential/net/while/enter/_9"
  input: "^sequential/net/while/merge/_13"
  input: "^sequential/net/while/merge/_14"
  input: "^sequential/net/while/merge/_15"
  input: "^sequential/net/while/merge/_16"
  input: "^sequential/net/while/merge/_17"
  input: "^sequential/net/while/merge/_18"
  input: "^sequential/net/while/merge/_19"
  attr {
    key: "_has_manual_control_dependencies"
    value {
      b: true
    }
  }
}
node {
  name: "Func/sequential/net/while/cond/_0/input/_47"
  op: "Identity"
  input: "sequential/net/while/merge/_15"
  input: "^Func/sequential/net/while/cond/_0/input_control_node/_44"
  attr {
    key: "T"
    value {
      type: DT_INT32
    }
  }
}
node {
  name: "unused_control_flow_input_11"
  op: "Placeholder"
  attr {
    key: "dtype"
    value {
      type: DT_INT32
    }
  }
  attr {
    key: "shape"
    value {
      shape {
        unknown_rank: true
      }
    }
  }
}
node {
  name: "Func/sequential/net/while/cond/_0/input/_50"
  op: "Identity"
  input: "sequential/net/while/merge/_18"
  input: "^Func/sequential/net/while/cond/_0/input_control_node/_44"
  attr {
    key: "T"
    value {
      type: DT_INT32
    }
  }
}
node {
  name: "sequential/net/while/cond/_0/sequential/net/while/Less"
  op: "Less"
  input: "Func/sequential/net/while/cond/_0/input/_47"
  input: "Func/sequential/net/while/cond/_0/input/_50"
  attr {
    key: "T"
    value {
      type: DT_INT32
    }
  }
}
node {
  name: "sequential/net/while/cond/_0/sequential/net/while/Identity"
  op: "Identity"
  input: "sequential/net/while/cond/_0/sequential/net/while/Less"
  attr {
    key: "T"
    value {
      type: DT_BOOL
    }
  }
}
node {
  name: "Func/sequential/net/while/cond/_0/output/_55"
  op: "Identity"
  input: "sequential/net/while/cond/_0/sequential/net/while/Identity"
  attr {
    key: "T"
    value {
      type: DT_BOOL
    }
  }
}
node {
  name: "sequential/net/while/LoopCond/_20"
  op: "LoopCond"
  input: "Func/sequential/net/while/cond/_0/output/_55"
}
node {
  name: "sequential/net/transpose"
  op: "Transpose"
  input: "x"
  input: "sequential/net/transpose/perm"
  attr {
    key: "T"
    value {
      type: DT_FLOAT
    }
  }
  attr {
    key: "Tperm"
    value {
      type: DT_INT32
    }
  }
}
node {
  name: "sequential/net/TensorArrayUnstack/TensorListFromTensor"
  op: "TensorListFromTensor"
  input: "sequential/net/transpose"
  input: "sequential/net/TensorArrayUnstack/TensorListFromTensor/element_shape"
  attr {
    key: "element_dtype"
    value {
      type: DT_FLOAT
    }
  }
  attr {
    key: "shape_type"
    value {
      type: DT_INT32
    }
  }
  experimental_type {
    type_id: TFT_PRODUCT
    args {
      type_id: TFT_ARRAY
      args {
        type_id: TFT_TENSOR
        args {
          type_id: TFT_FLOAT
        }
      }
    }
  }
}
node {
  name: "sequential/net/while/enter/_8"
  op: "Enter"
  input: "sequential/net/TensorArrayUnstack/TensorListFromTensor"
  input: "^sequential/net/while/LoopControlInputs/_12"
  attr {
    key: "T"
    value {
      type: DT_VARIANT
    }
  }
  attr {
    key: "frame_name"
    value {
      s: "sequential/net/while"
    }
  }
  attr {
    key: "is_constant"
    value {
      b: false
    }
  }
  attr {
    key: "parallel_iterations"
    value {
      i: 32
    }
  }
}
node {
  name: "unused_control_flow_input_12"
  op: "Placeholder"
  attr {
    key: "dtype"
    value {
      type: DT_VARIANT
    }
  }
  attr {
    key: "shape"
    value {
      shape {
        unknown_rank: true
      }
    }
  }
}
node {
  name: "Func/sequential/net/while/body/_1/input/_63"
  op: "Identity"
  input: "sequential/net/while/sequential/net/TensorArrayUnstack/TensorListFromTensor_switch/_27:1"
  input: "^Func/sequential/net/while/body/_1/input_control_node/_56"
  attr {
    key: "T"
    value {
      type: DT_VARIANT
    }
  }
}
node {
  name: "Func/sequential/net/while/body/_1/output/_73"
  op: "Identity"
  input: "Func/sequential/net/while/body/_1/input/_63"
  attr {
    key: "T"
    value {
      type: DT_VARIANT
    }
  }
}
node {
  name: "sequential/net/while/next_iteration/_43"
  op: "NextIteration"
  input: "Func/sequential/net/while/body/_1/output/_73"
  input: "^Func/sequential/net/while/body/_1/output_control_node/_77"
  attr {
    key: "T"
    value {
      type: DT_VARIANT
    }
  }
}
node {
  name: "sequential/net/while/merge/_19"
  op: "Merge"
  input: "sequential/net/while/enter/_8"
  input: "sequential/net/while/next_iteration/_43"
  attr {
    key: "N"
    value {
      i: 2
    }
  }
  attr {
    key: "T"
    value {
      type: DT_VARIANT
    }
  }
}
node {
  name: "sequential/net/Shape_1"
  op: "Shape"
  input: "sequential/net/transpose"
  attr {
    key: "T"
    value {
      type: DT_FLOAT
    }
  }
  attr {
    key: "out_type"
    value {
      type: DT_INT32
    }
  }
  experimental_type {
    type_id: TFT_PRODUCT
    args {
      type_id: TFT_SHAPE_TENSOR
      args {
        type_id: TFT_INT32
      }
    }
  }
}
node {
  name: "sequential/net/strided_slice_1"
  op: "StridedSlice"
  input: "sequential/net/Shape_1"
  input: "sequential/net/strided_slice_1/stack"
  input: "sequential/net/strided_slice_1/stack_1"
  input: "sequential/net/strided_slice_1/stack_2"
  attr {
    key: "Index"
    value {
      type: DT_INT32
    }
  }
  attr {
    key: "T"
    value {
      type: DT_INT32
    }
  }
  attr {
    key: "begin_mask"
    value {
      i: 0
    }
  }
  attr {
    key: "ellipsis_mask"
    value {
      i: 0
    }
  }
  attr {
    key: "end_mask"
    value {
      i: 0
    }
  }
  attr {
    key: "new_axis_mask"
    value {
      i: 0
    }
  }
  attr {
    key: "shrink_axis_mask"
    value {
      i: 1
    }
  }
}
node {
  name: "Func/sequential/net/while/body/_1/input/_59"
  op: "Identity"
  input: "sequential/net/while/sequential/net/time_switch/_23:1"
  input: "^Func/sequential/net/while/body/_1/input_control_node/_56"
  attr {
    key: "T"
    value {
      type: DT_INT32
    }
  }
}
node {
  name: "sequential/net/while/enter/_7"
  op: "Enter"
  input: "sequential/net/strided_slice_1"
  input: "^sequential/net/while/LoopControlInputs/_12"
  attr {
    key: "T"
    value {
      type: DT_INT32
    }
  }
  attr {
    key: "frame_name"
    value {
      s: "sequential/net/while"
    }
  }
  attr {
    key: "is_constant"
    value {
      b: false
    }
  }
  attr {
    key: "parallel_iterations"
    value {
      i: 32
    }
  }
}
node {
  name: "unused_control_flow_input_13"
  op: "Placeholder"
  attr {
    key: "dtype"
    value {
      type: DT_INT32
    }
  }
  attr {
    key: "shape"
    value {
      shape {
        unknown_rank: true
      }
    }
  }
}
node {
  name: "Func/sequential/net/while/body/_1/input/_62"
  op: "Identity"
  input: "sequential/net/while/sequential/net/strided_slice_1_switch/_26:1"
  input: "^Func/sequential/net/while/body/_1/input_control_node/_56"
  attr {
    key: "T"
    value {
      type: DT_INT32
    }
  }
}
node {
  name: "Func/sequential/net/while/body/_1/output/_72"
  op: "Identity"
  input: "Func/sequential/net/while/body/_1/input/_62"
  attr {
    key: "T"
    value {
      type: DT_INT32
    }
  }
}
node {
  name: "sequential/net/while/next_iteration/_42"
  op: "NextIteration"
  input: "Func/sequential/net/while/body/_1/output/_72"
  input: "^Func/sequential/net/while/body/_1/output_control_node/_77"
  attr {
    key: "T"
    value {
      type: DT_INT32
    }
  }
}
node {
  name: "sequential/net/while/merge/_18"
  op: "Merge"
  input: "sequential/net/while/enter/_7"
  input: "sequential/net/while/next_iteration/_42"
  attr {
    key: "N"
    value {
      i: 2
    }
  }
  attr {
    key: "T"
    value {
      type: DT_INT32
    }
  }
}
node {
  name: "sequential/net/Shape"
  op: "Shape"
  input: "x"
  attr {
    key: "T"
    value {
      type: DT_FLOAT
    }
  }
  attr {
    key: "out_type"
    value {
      type: DT_INT32
    }
  }
  experimental_type {
    type_id: TFT_PRODUCT
    args {
      type_id: TFT_SHAPE_TENSOR
      args {
        type_id: TFT_INT32
      }
    }
  }
}
node {
  name: "sequential/net/strided_slice"
  op: "StridedSlice"
  input: "sequential/net/Shape"
  input: "sequential/net/strided_slice/stack"
  input: "sequential/net/strided_slice/stack_1"
  input: "sequential/net/strided_slice/stack_2"
  attr {
    key: "Index"
    value {
      type: DT_INT32
    }
  }
  attr {
    key: "T"
    value {
      type: DT_INT32
    }
  }
  attr {
    key: "begin_mask"
    value {
      i: 0
    }
  }
  attr {
    key: "ellipsis_mask"
    value {
      i: 0
    }
  }
  attr {
    key: "end_mask"
    value {
      i: 0
    }
  }
  attr {
    key: "new_axis_mask"
    value {
      i: 0
    }
  }
  attr {
    key: "shrink_axis_mask"
    value {
      i: 1
    }
  }
}
node {
  name: "sequential/net/zeros/packed"
  op: "Pack"
  input: "sequential/net/strided_slice"
  input: "sequential/net/zeros/packed/1"
  attr {
    key: "N"
    value {
      i: 2
    }
  }
  attr {
    key: "T"
    value {
      type: DT_INT32
    }
  }
  attr {
    key: "axis"
    value {
      i: 0
    }
  }
}
node {
  name: "sequential/net/zeros"
  op: "Fill"
  input: "sequential/net/zeros/packed"
  input: "sequential/net/zeros/Const"
  attr {
    key: "T"
    value {
      type: DT_FLOAT
    }
  }
  attr {
    key: "index_type"
    value {
      type: DT_INT32
    }
  }
}
node {
  name: "sequential/net/while/sequential/net/TensorArrayUnstack/TensorListFromTensor_switch/_27"
  op: "Switch"
  input: "sequential/net/while/merge/_19"
  input: "sequential/net/while/LoopCond/_20"
  attr {
    key: "T"
    value {
      type: DT_VARIANT
    }
  }
}
node {
  name: "sequential/net/while/sequential/net/strided_slice_1_switch/_26"
  op: "Switch"
  input: "sequential/net/while/merge/_18"
  input: "sequential/net/while/LoopCond/_20"
  attr {
    key: "T"
    value {
      type: DT_INT32
    }
  }
}
node {
  name: "sequential/net/while/body/_1/sequential/net/while/gru_cell/split/split_dim"
  op: "Const"
  input: "^Func/sequential/net/while/body/_1/input_control_node/_56"
  attr {
    key: "dtype"
    value {
      type: DT_INT32
    }
  }
  attr {
    key: "value"
    value {
      tensor {
        dtype: DT_INT32
        tensor_shape {
        }
        int_val: -1
      }
    }
  }
}
node {
  name: "sequential/net/while/body/_1/sequential/net/while/TensorArrayV2Read/TensorListGetItem/element_shape"
  op: "Const"
  input: "^Func/sequential/net/while/body/_1/input_control_node/_56"
  attr {
    key: "dtype"
    value {
      type: DT_INT32
    }
  }
  attr {
    key: "value"
    value {
      tensor {
        dtype: DT_INT32
        tensor_shape {
          dim {
            size: 2
          }
        }
        tensor_content: "\377\377\377\377\r\000\000\000"
      }
    }
  }
}
node {
  name: "sequential/net/while/body/_1/sequential/net/while/TensorArrayV2Read/TensorListGetItem"
  op: "TensorListGetItem"
  input: "Func/sequential/net/while/body/_1/input/_63"
  input: "Func/sequential/net/while/body/_1/input/_59"
  input: "sequential/net/while/body/_1/sequential/net/while/TensorArrayV2Read/TensorListGetItem/element_shape"
  attr {
    key: "element_dtype"
    value {
      type: DT_FLOAT
    }
  }
}
node {
  name: "sequential/net/while/body/_1/sequential/net/while/gru_cell/ones_like/Shape"
  op: "Shape"
  input: "sequential/net/while/body/_1/sequential/net/while/TensorArrayV2Read/TensorListGetItem"
  attr {
    key: "T"
    value {
      type: DT_FLOAT
    }
  }
  attr {
    key: "out_type"
    value {
      type: DT_INT32
    }
  }
  experimental_type {
    type_id: TFT_PRODUCT
    args {
      type_id: TFT_SHAPE_TENSOR
      args {
        type_id: TFT_INT32
      }
    }
  }
}
node {
  name: "sequential/net/while/body/_1/sequential/net/while/gru_cell/ones_like/Const"
  op: "Const"
  input: "^Func/sequential/net/while/body/_1/input_control_node/_56"
  attr {
    key: "dtype"
    value {
      type: DT_FLOAT
    }
  }
  attr {
    key: "value"
    value {
      tensor {
        dtype: DT_FLOAT
        tensor_shape {
        }
        float_val: 1.0
      }
    }
  }
}
node {
  name: "sequential/net/while/body/_1/sequential/net/while/gru_cell/ones_like"
  op: "Fill"
  input: "sequential/net/while/body/_1/sequential/net/while/gru_cell/ones_like/Shape"
  input: "sequential/net/while/body/_1/sequential/net/while/gru_cell/ones_like/Const"
  attr {
    key: "T"
    value {
      type: DT_FLOAT
    }
  }
  attr {
    key: "index_type"
    value {
      type: DT_INT32
    }
  }
}
node {
  name: "sequential/net/while/body/_1/sequential/net/while/gru_cell/mul"
  op: "Mul"
  input: "sequential/net/while/body/_1/sequential/net/while/TensorArrayV2Read/TensorListGetItem"
  input: "sequential/net/while/body/_1/sequential/net/while/gru_cell/ones_like"
  attr {
    key: "T"
    value {
      type: DT_FLOAT
    }
  }
}
node {
  name: "sequential/net/while/body/_1/sequential/net/while/gru_cell/MatMul"
  op: "MatMul"
  input: "sequential/net/while/body/_1/sequential/net/while/gru_cell/mul"
  input: "sequential/net/while/body/_1/sequential/net/while/gru_cell/MatMul/ReadVariableOp"
  attr {
    key: "T"
    value {
      type: DT_FLOAT
    }
  }
  attr {
    key: "transpose_a"
    value {
      b: false
    }
  }
  attr {
    key: "transpose_b"
    value {
      b: false
    }
  }
}
node {
  name: "sequential/net/while/body/_1/sequential/net/while/gru_cell/unstack"
  op: "Unpack"
  input: "sequential/net/while/body/_1/sequential/net/while/gru_cell/ReadVariableOp"
  attr {
    key: "T"
    value {
      type: DT_FLOAT
    }
  }
  attr {
    key: "axis"
    value {
      i: 0
    }
  }
  attr {
    key: "num"
    value {
      i: 2
    }
  }
}
node {
  name: "sequential/net/while/body/_1/sequential/net/while/gru_cell/BiasAdd"
  op: "BiasAdd"
  input: "sequential/net/while/body/_1/sequential/net/while/gru_cell/MatMul"
  input: "sequential/net/while/body/_1/sequential/net/while/gru_cell/unstack"
  attr {
    key: "T"
    value {
      type: DT_FLOAT
    }
  }
  attr {
    key: "data_format"
    value {
      s: "NHWC"
    }
  }
}
node {
  name: "sequential/net/while/body/_1/sequential/net/while/gru_cell/split"
  op: "Split"
  input: "sequential/net/while/body/_1/sequential/net/while/gru_cell/split/split_dim"
  input: "sequential/net/while/body/_1/sequential/net/while/gru_cell/BiasAdd"
  attr {
    key: "T"
    value {
      type: DT_FLOAT
    }
  }
  attr {
    key: "num_split"
    value {
      i: 3
    }
  }
}
node {
  name: "unused_control_flow_input_14"
  op: "Placeholder"
  attr {
    key: "dtype"
    value {
      type: DT_FLOAT
    }
  }
  attr {
    key: "shape"
    value {
      shape {
        unknown_rank: true
      }
    }
  }
}
node {
  name: "Func/sequential/net/while/body/_1/input/_61"
  op: "Identity"
  input: "sequential/net/while/sequential/net/zeros_switch/_25:1"
  input: "^Func/sequential/net/while/body/_1/input_control_node/_56"
  attr {
    key: "T"
    value {
      type: DT_FLOAT
    }
  }
}
node {
  name: "sequential/net/while/body/_1/sequential/net/while/gru_cell/MatMul_1"
  op: "MatMul"
  input: "Func/sequential/net/while/body/_1/input/_61"
  input: "sequential/net/while/body/_1/sequential/net/while/gru_cell/MatMul_1/ReadVariableOp"
  attr {
    key: "T"
    value {
      type: DT_FLOAT
    }
  }
  attr {
    key: "transpose_a"
    value {
      b: false
    }
  }
  attr {
    key: "transpose_b"
    value {
      b: false
    }
  }
}
node {
  name: "sequential/net/while/body/_1/sequential/net/while/gru_cell/BiasAdd_1"
  op: "BiasAdd"
  input: "sequential/net/while/body/_1/sequential/net/while/gru_cell/MatMul_1"
  input: "sequential/net/while/body/_1/sequential/net/while/gru_cell/unstack:1"
  attr {
    key: "T"
    value {
      type: DT_FLOAT
    }
  }
  attr {
    key: "data_format"
    value {
      s: "NHWC"
    }
  }
}
node {
  name: "sequential/net/while/body/_1/sequential/net/while/gru_cell/Const"
  op: "Const"
  input: "^Func/sequential/net/while/body/_1/input_control_node/_56"
  attr {
    key: "dtype"
    value {
      type: DT_INT32
    }
  }
  attr {
    key: "value"
    value {
      tensor {
        dtype: DT_INT32
        tensor_shape {
          dim {
            size: 3
          }
        }
        tensor_content: "\024\000\000\000\024\000\000\000\377\377\377\377"
      }
    }
  }
}
node {
  name: "sequential/net/while/body/_1/sequential/net/while/gru_cell/split_1/split_dim"
  op: "Const"
  input: "^Func/sequential/net/while/body/_1/input_control_node/_56"
  attr {
    key: "dtype"
    value {
      type: DT_INT32
    }
  }
  attr {
    key: "value"
    value {
      tensor {
        dtype: DT_INT32
        tensor_shape {
        }
        int_val: -1
      }
    }
  }
}
node {
  name: "sequential/net/while/body/_1/sequential/net/while/gru_cell/split_1"
  op: "SplitV"
  input: "sequential/net/while/body/_1/sequential/net/while/gru_cell/BiasAdd_1"
  input: "sequential/net/while/body/_1/sequential/net/while/gru_cell/Const"
  input: "sequential/net/while/body/_1/sequential/net/while/gru_cell/split_1/split_dim"
  attr {
    key: "T"
    value {
      type: DT_FLOAT
    }
  }
  attr {
    key: "Tlen"
    value {
      type: DT_INT32
    }
  }
  attr {
    key: "num_split"
    value {
      i: 3
    }
  }
}
node {
  name: "sequential/net/while/body/_1/sequential/net/while/gru_cell/add"
  op: "AddV2"
  input: "sequential/net/while/body/_1/sequential/net/while/gru_cell/split"
  input: "sequential/net/while/body/_1/sequential/net/while/gru_cell/split_1"
  attr {
    key: "T"
    value {
      type: DT_FLOAT
    }
  }
}
node {
  name: "sequential/net/while/body/_1/sequential/net/while/gru_cell/Sigmoid"
  op: "Sigmoid"
  input: "sequential/net/while/body/_1/sequential/net/while/gru_cell/add"
  attr {
    key: "T"
    value {
      type: DT_FLOAT
    }
  }
}
node {
  name: "sequential/net/while/body/_1/sequential/net/while/gru_cell/mul_2"
  op: "Mul"
  input: "sequential/net/while/body/_1/sequential/net/while/gru_cell/Sigmoid"
  input: "Func/sequential/net/while/body/_1/input/_61"
  attr {
    key: "T"
    value {
      type: DT_FLOAT
    }
  }
}
node {
  name: "sequential/net/while/body/_1/sequential/net/while/gru_cell/sub/x"
  op: "Const"
  input: "^Func/sequential/net/while/body/_1/input_control_node/_56"
  attr {
    key: "dtype"
    value {
      type: DT_FLOAT
    }
  }
  attr {
    key: "value"
    value {
      tensor {
        dtype: DT_FLOAT
        tensor_shape {
        }
        float_val: 1.0
      }
    }
  }
}
node {
  name: "sequential/net/while/body/_1/sequential/net/while/gru_cell/sub"
  op: "Sub"
  input: "sequential/net/while/body/_1/sequential/net/while/gru_cell/sub/x"
  input: "sequential/net/while/body/_1/sequential/net/while/gru_cell/Sigmoid"
  attr {
    key: "T"
    value {
      type: DT_FLOAT
    }
  }
}
node {
  name: "sequential/net/while/body/_1/sequential/net/while/gru_cell/add_1"
  op: "AddV2"
  input: "sequential/net/while/body/_1/sequential/net/while/gru_cell/split:1"
  input: "sequential/net/while/body/_1/sequential/net/while/gru_cell/split_1:1"
  attr {
    key: "T"
    value {
      type: DT_FLOAT
    }
  }
}
node {
  name: "sequential/net/while/body/_1/sequential/net/while/gru_cell/Sigmoid_1"
  op: "Sigmoid"
  input: "sequential/net/while/body/_1/sequential/net/while/gru_cell/add_1"
  attr {
    key: "T"
    value {
      type: DT_FLOAT
    }
  }
}
node {
  name: "sequential/net/while/body/_1/sequential/net/while/gru_cell/mul_1"
  op: "Mul"
  input: "sequential/net/while/body/_1/sequential/net/while/gru_cell/Sigmoid_1"
  input: "sequential/net/while/body/_1/sequential/net/while/gru_cell/split_1:2"
  attr {
    key: "T"
    value {
      type: DT_FLOAT
    }
  }
}
node {
  name: "sequential/net/while/body/_1/sequential/net/while/gru_cell/add_2"
  op: "AddV2"
  input: "sequential/net/while/body/_1/sequential/net/while/gru_cell/split:2"
  input: "sequential/net/while/body/_1/sequential/net/while/gru_cell/mul_1"
  attr {
    key: "T"
    value {
      type: DT_FLOAT
    }
  }
}
node {
  name: "sequential/net/while/body/_1/sequential/net/while/gru_cell/mul_3"
  op: "Mul"
  input: "sequential/net/while/body/_1/sequential/net/while/gru_cell/sub"
  input: "sequential/net/while/body/_1/sequential/net/while/gru_cell/add_2"
  attr {
    key: "T"
    value {
      type: DT_FLOAT
    }
  }
}
node {
  name: "sequential/net/while/body/_1/sequential/net/while/gru_cell/add_3"
  op: "AddV2"
  input: "sequential/net/while/body/_1/sequential/net/while/gru_cell/mul_2"
  input: "sequential/net/while/body/_1/sequential/net/while/gru_cell/mul_3"
  attr {
    key: "T"
    value {
      type: DT_FLOAT
    }
  }
}
node {
  name: "sequential/net/while/enter/_6"
  op: "Enter"
  input: "sequential/net/zeros"
  input: "^sequential/net/while/LoopControlInputs/_12"
  attr {
    key: "T"
    value {
      type: DT_FLOAT
    }
  }
  attr {
    key: "frame_name"
    value {
      s: "sequential/net/while"
    }
  }
  attr {
    key: "is_constant"
    value {
      b: false
    }
  }
  attr {
    key: "parallel_iterations"
    value {
      i: 32
    }
  }
}
node {
  name: "sequential/net/while/body/_1/sequential/net/while/Identity_4"
  op: "Identity"
  input: "sequential/net/while/body/_1/sequential/net/while/gru_cell/add_3"
  input: "^sequential/net/while/body/_1/sequential/net/while/NoOp"
  attr {
    key: "T"
    value {
      type: DT_FLOAT
    }
  }
}
node {
  name: "Func/sequential/net/while/body/_1/output/_71"
  op: "Identity"
  input: "sequential/net/while/body/_1/sequential/net/while/Identity_4"
  attr {
    key: "T"
    value {
      type: DT_FLOAT
    }
  }
}
node {
  name: "sequential/net/while/next_iteration/_41"
  op: "NextIteration"
  input: "Func/sequential/net/while/body/_1/output/_71"
  input: "^Func/sequential/net/while/body/_1/output_control_node/_77"
  attr {
    key: "T"
    value {
      type: DT_FLOAT
    }
  }
}
node {
  name: "sequential/net/while/merge/_17"
  op: "Merge"
  input: "sequential/net/while/enter/_6"
  input: "sequential/net/while/next_iteration/_41"
  attr {
    key: "N"
    value {
      i: 2
    }
  }
  attr {
    key: "T"
    value {
      type: DT_FLOAT
    }
  }
}
node {
  name: "sequential/net/while/sequential/net/zeros_switch/_25"
  op: "Switch"
  input: "sequential/net/while/merge/_17"
  input: "sequential/net/while/LoopCond/_20"
  attr {
    key: "T"
    value {
      type: DT_FLOAT
    }
  }
}
node {
  name: "sequential/net/while/sequential/net/while/maximum_iterations_switch/_22"
  op: "Switch"
  input: "sequential/net/while/merge/_14"
  input: "sequential/net/while/LoopCond/_20"
  attr {
    key: "T"
    value {
      type: DT_INT32
    }
  }
}
node {
  name: "sequential/net/while/exit/_32"
  op: "Exit"
  input: "sequential/net/while/sequential/net/TensorArrayV2_1_switch/_24"
  attr {
    key: "T"
    value {
      type: DT_VARIANT
    }
  }
  attr {
    key: "_has_manual_control_dependencies"
    value {
      b: true
    }
  }
}
node {
  name: "sequential/net/TensorArrayV2Stack/TensorListStack"
  op: "TensorListStack"
  input: "sequential/net/while/exit/_32"
  input: "sequential/net/TensorArrayV2Stack/TensorListStack/element_shape"
  attr {
    key: "element_dtype"
    value {
      type: DT_FLOAT
    }
  }
  attr {
    key: "num_elements"
    value {
      i: 1
    }
  }
}
node {
  name: "sequential/net/strided_slice_3"
  op: "StridedSlice"
  input: "sequential/net/TensorArrayV2Stack/TensorListStack"
  input: "sequential/net/strided_slice_3/stack"
  input: "sequential/net/strided_slice_3/stack_1"
  input: "sequential/net/strided_slice_3/stack_2"
  attr {
    key: "Index"
    value {
      type: DT_INT32
    }
  }
  attr {
    key: "T"
    value {
      type: DT_FLOAT
    }
  }
  attr {
    key: "begin_mask"
    value {
      i: 0
    }
  }
  attr {
    key: "ellipsis_mask"
    value {
      i: 0
    }
  }
  attr {
    key: "end_mask"
    value {
      i: 0
    }
  }
  attr {
    key: "new_axis_mask"
    value {
      i: 0
    }
  }
  attr {
    key: "shrink_axis_mask"
    value {
      i: 1
    }
  }
}
node {
  name: "sequential/dense/MatMul/ReadVariableOp"
  op: "Identity"
  input: "sequential/dense/MatMul/ReadVariableOp/resource"
  attr {
    key: "T"
    value {
      type: DT_FLOAT
    }
  }
  attr {
    key: "_has_manual_control_dependencies"
    value {
      b: true
    }
  }
}
node {
  name: "sequential/dense/MatMul"
  op: "MatMul"
  input: "sequential/net/strided_slice_3"
  input: "sequential/dense/MatMul/ReadVariableOp"
  attr {
    key: "T"
    value {
      type: DT_FLOAT
    }
  }
  attr {
    key: "transpose_a"
    value {
      b: false
    }
  }
  attr {
    key: "transpose_b"
    value {
      b: false
    }
  }
}
node {
  name: "sequential/dense/BiasAdd/ReadVariableOp"
  op: "Identity"
  input: "sequential/dense/BiasAdd/ReadVariableOp/resource"
  attr {
    key: "T"
    value {
      type: DT_FLOAT
    }
  }
  attr {
    key: "_has_manual_control_dependencies"
    value {
      b: true
    }
  }
}
node {
  name: "sequential/dense/BiasAdd"
  op: "BiasAdd"
  input: "sequential/dense/MatMul"
  input: "sequential/dense/BiasAdd/ReadVariableOp"
  attr {
    key: "T"
    value {
      type: DT_FLOAT
    }
  }
  attr {
    key: "data_format"
    value {
      s: "NHWC"
    }
  }
}
node {
  name: "sequential/dense/Sigmoid"
  op: "Sigmoid"
  input: "sequential/dense/BiasAdd"
  attr {
    key: "T"
    value {
      type: DT_FLOAT
    }
  }
}
node {
  name: "sequential/net/gru_cell/MatMul/ReadVariableOp"
  op: "Identity"
  input: "sequential/net/gru_cell/MatMul/ReadVariableOp/resource"
  attr {
    key: "T"
    value {
      type: DT_FLOAT
    }
  }
  attr {
    key: "_has_manual_control_dependencies"
    value {
      b: true
    }
  }
}
node {
  name: "sequential/net/gru_cell/MatMul_1/ReadVariableOp"
  op: "Identity"
  input: "sequential/net/gru_cell/MatMul_1/ReadVariableOp/resource"
  attr {
    key: "T"
    value {
      type: DT_FLOAT
    }
  }
  attr {
    key: "_has_manual_control_dependencies"
    value {
      b: true
    }
  }
}
node {
  name: "sequential/net/gru_cell/ReadVariableOp"
  op: "Identity"
  input: "sequential/net/gru_cell/ReadVariableOp/resource"
  attr {
    key: "T"
    value {
      type: DT_FLOAT
    }
  }
  attr {
    key: "_has_manual_control_dependencies"
    value {
      b: true
    }
  }
}
node {
  name: "sequential/net/while/exit/_29"
  op: "Exit"
  input: "sequential/net/while/sequential/net/while/loop_counter_switch/_21"
  attr {
    key: "T"
    value {
      type: DT_INT32
    }
  }
  attr {
    key: "_has_manual_control_dependencies"
    value {
      b: true
    }
  }
}
node {
  name: "sequential/net/while/exit/_30"
  op: "Exit"
  input: "sequential/net/while/sequential/net/while/maximum_iterations_switch/_22"
  attr {
    key: "T"
    value {
      type: DT_INT32
    }
  }
  attr {
    key: "_has_manual_control_dependencies"
    value {
      b: true
    }
  }
}
node {
  name: "sequential/net/while/exit/_31"
  op: "Exit"
  input: "sequential/net/while/sequential/net/time_switch/_23"
  attr {
    key: "T"
    value {
      type: DT_INT32
    }
  }
  attr {
    key: "_has_manual_control_dependencies"
    value {
      b: true
    }
  }
}
node {
  name: "sequential/net/while/exit/_33"
  op: "Exit"
  input: "sequential/net/while/sequential/net/zeros_switch/_25"
  attr {
    key: "T"
    value {
      type: DT_FLOAT
    }
  }
  attr {
    key: "_has_manual_control_dependencies"
    value {
      b: true
    }
  }
}
node {
  name: "sequential/net/while/exit/_34"
  op: "Exit"
  input: "sequential/net/while/sequential/net/strided_slice_1_switch/_26"
  attr {
    key: "T"
    value {
      type: DT_INT32
    }
  }
  attr {
    key: "_has_manual_control_dependencies"
    value {
      b: true
    }
  }
}
node {
  name: "sequential/net/while/exit/_35"
  op: "Exit"
  input: "sequential/net/while/sequential/net/TensorArrayUnstack/TensorListFromTensor_switch/_27"
  attr {
    key: "T"
    value {
      type: DT_VARIANT
    }
  }
  attr {
    key: "_has_manual_control_dependencies"
    value {
      b: true
    }
  }
}
node {
  name: "sequential/net/while/LoopExecuted/_36"
  op: "NoOp"
  input: "^sequential/net/while/exit/_29"
  input: "^sequential/net/while/exit/_30"
  input: "^sequential/net/while/exit/_31"
  input: "^sequential/net/while/exit/_32"
  input: "^sequential/net/while/exit/_33"
  input: "^sequential/net/while/exit/_34"
  input: "^sequential/net/while/exit/_35"
  attr {
    key: "_has_manual_control_dependencies"
    value {
      b: true
    }
  }
}
node {
  name: "NoOp"
  op: "NoOp"
  input: "^sequential/dense/BiasAdd/ReadVariableOp"
  input: "^sequential/dense/MatMul/ReadVariableOp"
  input: "^sequential/net/gru_cell/MatMul/ReadVariableOp"
  input: "^sequential/net/gru_cell/MatMul_1/ReadVariableOp"
  input: "^sequential/net/gru_cell/ReadVariableOp"
  input: "^sequential/net/while/LoopExecuted/_36"
  attr {
    key: "_has_manual_control_dependencies"
    value {
      b: true
    }
  }
}
node {
  name: "Identity"
  op: "Identity"
  input: "sequential/dense/Sigmoid"
  input: "^NoOp"
  attr {
    key: "T"
    value {
      type: DT_FLOAT
    }
  }
}
versions {
  producer: 1482
}
